skate_recommander_app/assets/model.tflite (tflite, 11136 bytes, 7 tensors)

arith.constant f4 [16, 5]
00000000: 91d7 723d 6fbc adbc bc97 4f3e 973f 9a3e
00000010: ecb7 c3bd 5894 b73e 4044 b3be fc2e e63e
00000020: c5c6 b93e cc31 a9be af58 913e c902 d1be
00000030: 7030 073f 29f9 9f3e e143 b2be b3a8 49bd
00000040: 4562 36bd b3e5 f13e 94b9 083e f5eb 02bd
00000050: 8e90 2bbe 63d5 de3d 824d cbbe a9f4 63be
00000060: cc28 883d 1950 fcbc ac72 293e 6594 d7be
00000070: 16d7 81be 93e7 81bc a52a 1f3d 5889 03bc
00000080: a2f7 4dbe 11cb 8cbd d676 8ebc ceac 203d
00000090: eaa4 05bc 682a 4ebe a3ca 8cbd 8ba4 90bc
000000a0: 2e87 4bbd 581c 53bd d792 f03e b55d 0b3e
000000b0: 55cc 12bd ea0d 6e3e 749d b9bd 088e 22bd
000000c0: 4b7b ee3d c654 fabd 9578 56be 10b8 a33d
000000d0: 422a 843e 3e83 7a3d 7fd6 243e 5fc0 29bb
000000e0: a609 ed3b e121 d23e 842d 173e dbfe 1bbc
000000f0: e5ad 08bd cc85 55bd c0f7 e53e d1ab 143e
00000100: 9c85 21bd f87f 333e 923d e3bd 215b 2dbd
00000110: bfc8 e93d 698a e9bd ee66 673e 30c5 b3bd
00000120: d7b1 10bd 5b72 ea3d 45bd f3bd 5199 1f3d
00000130: 42fb dd3c 5a74 c23c 237a 1a3d 0e90 bf3c
0.05928761 -0.021208016 0.20272726 0.3012664 -0.09556565 0.35855365 -0.35013008 0.4495772
0.36284462 -0.33045805 0.28387973 -0.40822437 0.52808285 0.31244782 -0.34817412 -0.04923315
-0.04452731 0.4724556 0.13352042 -0.031963307 -0.16754362 0.10880544 -0.3970757 -0.22261299
0.066484064 -0.030799912 0.1654765 -0.42105404 -0.2535941 -0.015857494 0.03885903 -0.008028351
-0.20113996 -0.06874669 -0.01739065 0.0392273 -0.008156994 -0.20133364 -0.068745874 -0.017656585
-0.049689464 -0.051540703 0.4698703 0.13609965 -0.035839397 0.23247495 -0.09063235 -0.039686233
0.1164461 -0.122232005 -0.20944436 0.079940915 0.2581349 0.06116032 0.16097449 -0.0025902016
0.007233816 0.41041473 0.14763457 -0.0095212115 -0.033368964 -0.05212955 0.4491558 0.14518668
-0.03943406 0.17529285 -0.11095728 -0.042323235 0.114152424 -0.11403353 0.22597858 -0.08777845
-0.03532585 0.11447593 -0.11901335 0.038964573 0.027097348 0.023737121 0.037714135 0.02338412

arith.constant1 f4 [5, 2]
00000000: 2787 4c3e 16b4 1e3e e032 d73e 81a4 da3e
00000010: 02ff a4be 50df b3be 54f1 58bd 9c59 6bbd
00000020: 4ced 1d3c 801d 92bb
0.19973432 0.15498385 0.42031002 0.42703632 -0.32225806 -0.3513131 -0.052964523 -0.057458505
0.0096390955 -0.004459083

arith.constant8 f4 [64, 7]
00000000: 2409 55be 0ac9 babe 179e 783e ea5e 0dbe
00000010: 0d5b afbe 9228 d53d f599 393d cc22 d8bd
00000020: 740a 42bd 4e6f 863e c064 cd3e e7cf a9be
00000030: 1300 bc3e f269 3c3e cdf7 7c3d 333e 813d
00000040: f3df 8a3e 18c1 543c ed45 72be 01d9 47bd
00000050: 7265 d93e 27f8 a3be 6c82 a23e 8dfa 95be
00000060: cfe8 b9bd 9ac3 62be fc2c bebe e60a 8bbe
00000070: e55d ae3d 4bcf cfbd 1546 cb3e 25e3 9a3e
00000080: fbce 14bd e945 e83e 8c29 253e 6eca 023e
00000090: 2354 873e 3068 86be 3cad 9cbe a789 0c3e
000000a0: ace7 e33d bf8f acbe 32e7 3cbe d199 b0bc
000000b0: 209c 3cbe 32fc 2f3d 28f2 003e df9c 0f3d
000000c0: 0b0f 3dbe 64dd 233e 8c4d 1cbe 7c10 6d3e
000000d0: 19e5 f43d fb07 97be b6e8 c43d 2b0d a03c
000000e0: 9fb6 febe 1bb1 493e ee87 8e3e 035c 783d
000000f0: 41fb 913e fa52 88be 9f19 a7be 2568 b3bd
00000100: 66d0 a0be fea1 a23e 2e37 46be dcaa 5dbe
00000110: 78c6 34be 9bf9 12be a375 f0bd 7116 873e
00000120: c0f8 6bbe a320 8fbe 086c 33be b2da f5bd
00000130: b1c7 233e f3c7 aa3d a81a 8abd ddaa 69be
00000140: 8965 803e e469 f5bd b31c 143e 4de4 a3bd
00000150: 5fc0 7b3d fe75 4b3e d41e d9be 9749 d2bd
00000160: 375e bfbd 00e1 87be 9698 72be 2fc4 653d
00000170: e7f0 dbbd fe78 aabd b9d1 353d 5253 0bbf
00000180: 4cf8 c83e 6a0b fd3e 1ec0 573e ecf9 d4bc
00000190: ce42 f53c 78b0 923d f1d9 8f3e 5f4b eebd
000001a0: d1f8 063e 98d3 eb3d b36a 11be 22dd 0c3f
000001b0: 3a15 993e eb96 7ebe 8bee d83e 3239 e13e
000001c0: 39a5 223c c31e 87be 4f22 193f b24b af3e
000001d0: 0b54 acbe 8d81 db3e 109b 023f de35 203e
000001e0: 1f72 d23d cba3 8d3e 93e5 b13d f0d2 94bd
000001f0: 30fc 883e cbf1 c43d 5243 5dbe ed35 c8bc
00000200: 068e 203f 5a05 8d3e aa1e 033e b47e 113e
00000210: 1365 aa3e e14c 58be 968b 7f3d 7f2e 2bbe
00000220: 10a5 70bd f27d d0be 1401 3d3e 1d8e 613e
00000230: bd75 adbe 58cd 3b3e b0bc f43e ee98 863d
00000240: c3ed ed3e 07de 36be 8d27 f6be 281e d83e
00000250: 414d 0fbe 0850 2abe ca1b 30bd 7f50 b5be
00000260: e884 943e 59d4 d23e 34f6 98bd 2727 723e
00000270: 59ae d33e db40 8fbd 59c9 a03e 891d 28be
00000280: 242b 6ebe c75c 05bf 45bd 3d3e 12f9 5d3e
00000290: 8211 613e ae36 d63e 4379 14be 0e8a d7be
000002a0: 2ed7 a23e eb21 a6be 63e1 843c f41a 883e
000002b0: 002d 10be 8cdb b03e 8b43 063f 2715 52be
000002c0: 2c58 503d 599c 30bf 28b7 0bbf c2bc ff3d
000002d0: 23d7 26bf 6258 fcbe b0f7 a6be 65d8 c93e
000002e0: 9d5a c23e 8105 803e a076 9c3e 06ec 0abf
000002f0: 46b0 14bc d23e de3d 70b0 73be 2a48 b03e
00000300: 6062 7a3e b052 68ba 6ae9 f43d 7a1a fe3e
00000310: 0c04 67be acdd 9abb 26e7 a3be d1f2 ce3d
00000320: 0f47 60be cf13 e83d c9a0 93be d0ca 163d
00000330: 5178 9dbe 9450 cc3e ea63 f23d fbd6 17be
00000340: 8947 8e3e df88 9e3e ae3e a83d bce0 8a3e
00000350: 254d 54be 11c0 ac3d d98c fbbc 7349 cd3e
00000360: ce8c 65be 0426 a63e cc40 bebe 7039 ae3c
00000370: 8788 093f 87b8 84bd fa15 d73e e834 553e
00000380: a5f6 f1bc ff6a b6bc dd6b f0bd c097 c93d
00000390: 6454 a9be 885d 32be 263c 04be 1edf 40be
000003a0: c1de f13b 3f7e f7bd 32ef 8b3d a5c5 123d
000003b0: 5353 f23d 020d 02bd 4ba1 333d 504c 77be
000003c0: 1b3d a13e a6b6 d53e 2593 09bd de9b 023f
000003d0: f40e 173e e570 ac3e d4b7 27be 942b 9fbe
000003e0: 7b80 1cbe 8852 b2bd 02b7 6e3e 3103 503e
000003f0: 2cbe 7b3e d9a2 fd3d cced 71be 2680 9ebd
-0.20804268 -0.36481506 0.24279056 -0.13805738 -0.34249154 0.10408129 0.04531284 -0.10553512
-0.04737325 0.26256794 0.4011593 -0.3316643 0.36718807 0.1839979 0.06175976 0.06310692
0.27123985 0.01298549 -0.23659487 -0.048790935 0.4246021 -0.32025263 0.3174013 -0.29292718
-0.09077608 -0.22144929 -0.37143695 -0.27156752 0.08514003 -0.1014696 0.39701906 0.30251423
-0.036330204 0.45365837 0.1612913 0.12772533 0.2643138 -0.26251364 -0.30600917 0.13724385
0.11128172 -0.3370342 -0.18447569 -0.02155772 -0.18418932 0.04296512 0.12592375 0.035061713
-0.1846277 0.16002423 -0.15263957 0.2315082 0.119577594 -0.29498276 0.096146986 0.019537529
-0.49748704 0.19696467 0.2783808 0.060634624 0.28512004 -0.26625806 -0.32636735 -0.08760098
-0.31408995 0.31764215 -0.19356987 -0.21647209 -0.17653835 -0.1435303 -0.117411874 0.2638431
-0.2304411 -0.27954587 -0.1752168 -0.120046034 0.15994145 0.083389185 -0.067433655 -0.22819085
0.25077465 -0.11983088 0.14464073 -0.08002529 0.061462756 0.19869229 -0.42406332 -0.102679424
-0.09344142 -0.2653885 -0.2369102 0.0560953 -0.10739308 -0.08323859 0.04438946 -0.5442401
0.39251935 0.4942277 0.2106938 -0.025998078 0.029939082 0.07162565 0.28095964 -0.1163547
0.13180853 0.11514968 -0.14200859 0.5502492 0.29899007 -0.24862258 0.42369494 0.4398895
0.009927087 -0.26390657 0.59817976 0.34237438 -0.3365787 0.42872277 0.51017857 0.15645549
0.10275673 0.27664027 0.08686366 -0.07266796 0.26754904 0.09616431 -0.21607712 -0.024439776
0.6271671 0.27543145 0.12804666 0.1420849 0.33280239 -0.21123077 0.06238898 -0.16716956
-0.058751166 -0.4072109 0.18457443 0.22026868 -0.3387889 0.18340051 0.47800207 0.06572138
0.4647046 -0.17858134 -0.4807705 0.42210507 -0.13994314 -0.16632092 -0.04299525 -0.35412976
0.2900765 0.41177633 -0.074688345 0.23647748 0.41343954 -0.06994792 0.31403616 -0.16417517
-0.23258644 -0.5209469 0.18529232 0.21677044 0.21979335 0.41838592 -0.14499383 -0.42097515
0.31804794 -0.32447752 0.016220754 0.26583064 -0.14079666 0.345425 0.5244681 -0.20515881
0.050865337 -0.6898857 -0.5457635 0.124871746 -0.6517202 -0.4928618 -0.32610846 0.39422908
0.37959757 0.250042 0.30559254 -0.54266393 -0.00907523 0.10851826 -0.23797774 0.34430057
0.2445159 -0.0008862419 0.11958583 0.49629575 -0.22560138 -0.0047261324 -0.3201229 0.10104907
-0.21902107 0.11331903 -0.28833607 0.03681451 -0.30755857 0.39905226 0.11835463 -0.14828102
0.27788952 0.309638 0.0821508 0.27124584 -0.20732553 0.08435071 -0.03070681 0.400951
-0.22416994 0.3245088 -0.3715881 0.021267623 0.5372395 -0.06480508 0.42008954 0.20820963
-0.029536555 -0.022267817 -0.11739323 0.09843397 -0.33072197 -0.17418492 -0.1291357 -0.18835112
0.0073812907 -0.120846264 0.06832732 0.03583302 0.11832299 -0.031750686 0.043854993 -0.24150205
0.31491932 0.41740912 -0.033587594 0.51019084 0.14751798 0.33679882 -0.16378719 -0.31087935
-0.15283386 -0.08707148 0.23312 0.20313717 0.24584264 0.12384576 -0.23625869 -0.07739286

arith.constant9 f4 [32]
00000000: 5fa4 abbc a8af 813c ed7e b2bc 43c0 ab3c
00000010: c44e 4f3e 248c 05bd 0cbe a7b8 2afb 153e
00000020: dc1a 7c3c b98e 9e3d 1229 033d 18b2 d73d
00000030: 8a73 1cbc 4bc4 8e3e 130b 1ebd 9d9d 483e
00000040: 4d78 3d3e 82b4 f13c b481 493d 4900 be3c
00000050: 0fd2 04bc 5d0e e83c 460f c13b e8ea 5cbc
00000060: 9451 853c dd76 8c3e 42e6 8d3d 3462 263d
00000070: 64ad a33d 1e18 863e 54da 643c feb0 d1bc
-0.020952402 0.01583083 -0.021789039 0.020965701 0.2024489 -0.03260435 -7.9985795e-05 0.14646593
0.015387263 0.07742066 0.03202159 0.105320156 -0.009549031 0.27884135 -0.03858478 0.19591375
0.18502922 0.029505018 0.04919596 0.023193495 -0.0081067225 0.028327161 0.0058917133 -0.01348374
0.016274251 0.27434435 0.06928684 0.040620998 0.07992056 0.26190275 0.013968069 -0.025597092

arith.constant10 f4 [64]
00000000: 2bc3 f63b 55b1 dcbc c6d0 d8bb 0e00 7f3d
00000010: 445d a1bc 3d39 573d 948c 7f3e 161f 8c3d
00000020: 2d0c 0bbd bd07 cd3d 32d6 9c3d 59b0 e43c
00000030: d335 a6bb f7e1 6c3e 8acd ddbc fc9f 10bd
00000040: 51ed 00bd 9cc6 7bbc 6c82 963d 0326 dd3d
00000050: 3a8d 8dbd e0b6 b93d 047c 17bd ab06 eabc
00000060: b360 1f3e 3a25 273d 1691 48bd 715d dcbc
00000070: 35e2 483d a494 b0bc 369a e13d 2e51 e33d
00000080: 96b4 cf3d ee77 ef3c a252 17bd b12c 543e
00000090: 14dd 0c3e 1565 e2bc 907d c4bd 3a3a 4b3e
000000a0: 64db 623e 87e4 0dbd dd94 74bd 47ed d83d
000000b0: ad73 babc 70be 4b3e 0b00 413d f815 ecbc
000000c0: 0314 febc 3e95 35bc e08d 663d ccaf a5bd
000000d0: a69d bebc ba1a 453d 1fb0 20bd dfb5 d5bd
000000e0: 23f6 aa3c f3d4 0d3d a9ca f9bc 80b8 263d
000000f0: cf54 453d a98e 5a3e 102d 73bd 657d 153c
0.00753059 -0.026940027 -0.0066166846 0.06225591 -0.019697793 0.05254482 0.2495597 0.06841867
-0.03394716 0.100112416 0.07658042 0.02791612 -0.0050723343 0.23133074 -0.027075548 -0.035308823
-0.031476323 -0.015367176 0.07349095 0.10798266 -0.069117025 0.09068084 -0.036983505 -0.028567633
0.15564232 0.040806986 -0.04896649 -0.026900025 0.049043853 -0.021555252 0.110157415 0.11099468
0.10141866 0.029231992 -0.03694404 0.20720173 0.1375621 -0.02763609 -0.09594262 0.1984643
0.22154003 -0.03464177 -0.05971228 0.10592132 -0.022760237 0.19896865 0.04711918 -0.02881907
-0.031015402 -0.011082945 0.056287646 -0.08090171 -0.023268532 0.04812119 -0.039230462 -0.1043508
0.02086932 0.034626912 -0.030492144 0.040703297 0.048176583 0.21343483 -0.059369147 0.009124135

arith.constant12 f4 [1, 32]
00000000: 8c9b 36bf fce5 29bf e18f b33e 5f12 0ebf
00000010: b992 1f3f 27ed a53e 17d8 34bf 356a 2a3f
00000020: 4946 fcbe 4bc0 1fbf 48ed 08bf 756b 45bf
00000030: f59e 2c3e 36db 343f a7c7 c63e 27ec 043f
00000040: fe30 483f a3f7 2bbf c7ba d73e cafb dabe
00000050: a943 a03e 196a 25bf 27da 23bf 68b8 40bf
00000060: aac5 1ebf 119c 4a3f bcb1 53bf 69d6 16bf
00000070: 9826 33bf 00d6 343f 7279 27bf d4d1 843e
-0.71331096 -0.66366553 0.35070708 -0.5549678 0.62333256 0.32407495 -0.70642227 0.6656831
-0.49272373 -0.6240279 -0.5348706 -0.7711709 0.16857512 0.7064699 0.38824198 0.5192284
0.78199756 -0.6717474 0.42134687 -0.42770225 0.3130162 -0.6461502 -0.6400475 -0.7528138
-0.6202036 0.7914439 -0.82693076 -0.58920914 -0.69980764 0.7063904 -0.65419686 0.25941336

tfl.pseudo_qconst i1 [32, 64]
00000000: fb59 232c 223d 2bf9 dc16 1d26 0ed1 f97a
00000010: 6912 1009 b2db cf07 ff54 ea67 275b fb00
00000020: 2c01 2213 c868 d220 046b bfdd 0027 fd49
00000030: 3464 fab4 c54a 7cb6 4a1e 607f 2217 f752
00000040: 3031 3131 3dff 23f9 ddfc f309 3920 1949
00000050: 2418 350d d5bc efc8 117f dc1d 2821 1402
00000060: 0703 1409 d133 c424 dd40 e5d2 3a0a 333d
00000070: 3824 31d4 0e2a 20d8 2750 4e63 06de de40
00000080: 1bbc c84f fede b067 1b0e 91e5 ecf6 f2af
00000090: 2290 b256 0519 311b e41a 5d6e 12c0 879c
000000a0: 0fe9 d739 c0b7 fac9 b62d a827 b781 342c
000000b0: 2546 8bb5 83fe efeb 37ce 6437 5352 17a1
000000c0: 0e38 0523 443c 230c d9f0 1dfa 1fe1 0164
000000d0: 6a1f 2b0b f8bc faf0 0855 f76d 2323 24fe
000000e0: f107 5700 d653 d520 116d bacf 411a f656
000000f0: 2b59 eeb7 e817 4022 2354 697f 2b08 c535
-5 89 35 44 34 61 43 -7
-36 22 29 38 14 -47 -7 122
105 18 16 9 -78 -37 -49 7
-1 84 -22 103 39 91 -5 0
44 1 34 19 -56 104 -46 32
4 107 -65 -35 0 39 -3 73
52 100 -6 -76 -59 74 124 -74
74 30 96 127 34 23 -9 82
48 49 49 49 61 -1 35 -7
-35 -4 -13 9 57 32 25 73
36 24 53 13 -43 -68 -17 -56
17 127 -36 29 40 33 20 2
7 3 20 9 -47 51 -60 36
-35 64 -27 -46 58 10 51 61
56 36 49 -44 14 42 32 -40
39 80 78 99 6 -34 -34 64
27 -68 -56 79 -2 -34 -80 103
27 14 -111 -27 -20 -10 -14 -81
34 -112 -78 86 5 25 49 27
-28 26 93 110 18 -64 -121 -100
15 -23 -41 57 -64 -73 -6 -55
-74 45 -88 39 -73 -127 52 44
37 70 -117 -75 -125 -2 -17 -21
55 -50 100 55 83 82 23 -95
14 56 5 35 68 60 35 12
-39 -16 29 -6 31 -31 1 100
106 31 43 11 -8 -68 -6 -16
8 85 -9 109 35 35 36 -2
-15 7 87 0 -42 83 -43 32
17 109 -70 -49 65 26 -10 86
43 89 -18 -73 -24 23 64 34
35 84 105 127 43 8 -59 53
